samples/modules/tflite-micro/micro_speech/src/inference/micro_speech_quantized.tflite (tflite, 18800 bytes, 2 tensors)

final_fc_weights/read/transpose i1 [4, 4000] scale=0.00047870507 zero_point=0
000000 ff f9 fd 0a 07 08 07 03 07 f2 d1 09 f0 e9 28 09
       -0.00047870507 -0.0033509354 -0.0014361152 0.0047870507 0.0033509354 0.0038296406 0.0033509354 0.0014361152 0.0033509354 -0.006701871 -0.022499138 0.0043083457 -0.007659281 -0.011010217 0.019148203 0.0043083457
000010 df 05 fa f0 e8 e3 13 0e 08 ef d3 ee 0f e8 eb 14
       -0.015797267 0.0023935253 -0.0028722305 -0.007659281 -0.011488922 -0.013882447 0.009095396 0.006701871 0.0038296406 -0.008137986 -0.021541728 -0.008616691 0.007180576 -0.011488922 -0.010052807 0.009574101
000020 f7 ed fd 1f e8 d5 eb fc 0e f4 f7 07 05 ea f6 1f
       -0.0043083457 -0.009095396 -0.0014361152 0.014839857 -0.011488922 -0.020584319 -0.010052807 -0.0019148203 0.006701871 -0.005744461 -0.0043083457 0.0033509354 0.0023935253 -0.010531511 -0.0047870507 0.014839857
000030 f8 db dc 0b 03 dd d8 f3 0f 19 e1 09 fc e4 02 04
       -0.0038296406 -0.017712088 -0.017233383 0.0052657556 0.0014361152 -0.016754678 -0.019148203 -0.006223166 0.007180576 0.011967626 -0.014839857 0.0043083457 -0.0019148203 -0.013403742 0.00095741014 0.0019148203
000040 f1 04 eb f3 1e 06 fd 11 fc fa f6 1f 0f 02 f5 f7
       -0.007180576 0.0019148203 -0.010052807 -0.006223166 0.014361152 0.0028722305 -0.0014361152 0.008137986 -0.0019148203 -0.0028722305 -0.0047870507 0.014839857 0.007180576 0.00095741014 -0.0052657556 -0.0043083457
000050 ff 24 df f7 f8 f3 f6 e9 ef 03 dd f2 28 e1 f2 22
       -0.00047870507 0.017233383 -0.015797267 -0.0043083457 -0.0038296406 -0.006223166 -0.0047870507 -0.011010217 -0.008137986 0.0014361152 -0.016754678 -0.006701871 0.019148203 -0.014839857 -0.006701871 0.016275972
000060 f4 09 f7 f9 f0 d4 f9 ee ff 14 da f3 11 e2 f6 0c
       -0.005744461 0.0043083457 -0.0043083457 -0.0033509354 -0.007659281 -0.021063022 -0.0033509354 -0.008616691 -0.00047870507 0.009574101 -0.018190792 -0.006223166 0.008137986 -0.014361152 -0.0047870507 0.005744461
000070 f2 eb f8 e8 e3 08 02 17 f4 0b 0c 27 e6 02 03 f9
       -0.006701871 -0.010052807 -0.0038296406 -0.011488922 -0.013882447 0.0038296406 0.00095741014 0.011010217 -0.005744461 0.0052657556 0.005744461 0.018669497 -0.012446332 0.00095741014 0.0014361152 -0.0033509354
000080 14 18 f6 eb 1f 0c f1 ee fc 08 f0 fe fd ee 17 fd
       0.009574101 0.011488922 -0.0047870507 -0.010052807 0.014839857 0.005744461 -0.007180576 -0.008616691 -0.0019148203 0.0038296406 -0.007659281 -0.00095741014 -0.0014361152 -0.008616691 0.011010217 -0.0014361152
000090 1c ef fd de 04 05 f0 31 fa 0b dc 0d ed f5 fa f4
       0.013403742 -0.008137986 -0.0014361152 -0.016275972 0.0019148203 0.0023935253 -0.007659281 0.02345655 -0.0028722305 0.0052657556 -0.017233383 0.006223166 -0.009095396 -0.0052657556 -0.0028722305 -0.005744461
0000a0 08 0c d7 1e 15 03 f5 02 f4 fb ed 01 fe d6 1f fd
       0.0038296406 0.005744461 -0.019626908 0.014361152 0.010052807 0.0014361152 -0.0052657556 0.00095741014 -0.005744461 -0.0023935253 -0.009095396 0.00047870507 -0.00095741014 -0.020105613 0.014839857 -0.0014361152
0000b0 fd 0e fa 06 f1 f9 e2 16 e9 f1 03 0d 0d df f9 1a
       -0.0014361152 0.006701871 -0.0028722305 0.0028722305 -0.007180576 -0.0033509354 -0.014361152 0.010531511 -0.011010217 -0.007180576 0.0014361152 0.006223166 0.006223166 -0.015797267 -0.0033509354 0.012446332
0000c0 0e f6 fc 0a 19 e2 e0 09 15 f0 f1 06 f1 e1 ef 1a
       0.006701871 -0.0047870507 -0.0019148203 0.0047870507 0.011967626 -0.014361152 -0.015318562 0.0043083457 0.010052807 -0.007659281 -0.007180576 0.0028722305 -0.007180576 -0.014839857 -0.008137986 0.012446332
0000d0 08 e8 fd 12 14 06 f1 fc ea fb f7 ea 1d 09 fa f6
       0.0038296406 -0.011488922 -0.0014361152 0.008616691 0.009574101 0.0028722305 -0.007180576 -0.0019148203 -0.010531511 -0.0023935253 -0.0043083457 -0.010531511 0.013882447 0.0043083457 -0.0028722305 -0.0047870507
0000e0 08 f2 e7 f8 fc 16 f5 0e 08 f9 0a 03 26 d8 02 f5
       0.0038296406 -0.006701871 -0.011967626 -0.0038296406 -0.0019148203 0.010531511 -0.0052657556 0.006701871 0.0038296406 -0.0033509354 0.0047870507 0.0014361152 0.018190792 -0.019148203 0.00095741014 -0.0052657556
0000f0 f6 f6 ef 1f e4 e2 fb 02 1b e6 de 00 f2 ed fb 18
       -0.0047870507 -0.0047870507 -0.008137986 0.014839857 -0.013403742 -0.014361152 -0.0023935253 0.00095741014 0.012925037 -0.012446332 -0.016275972 0.0 -0.006701871 -0.009095396 -0.0023935253 0.011488922

first_weights/read i1 [1, 10, 8, 8]
000000 fa ee 28 c4 ee fe cf 0f 1e f7 1f 06 0d ed e9 83
       -6 -18 40 -60 -18 -2 -49 15 30 -9 31 6 13 -19 -23 -125
000010 5c c9 18 e3 f9 14 28 2a 09 f2 18 34 62 ea ef d6
       92 -55 24 -29 -7 20 40 42 9 -14 24 52 98 -22 -17 -42
000020 36 b7 1e f7 3b 22 28 39 c2 9d f1 07 5e 0b 1e 2c
       54 -73 30 -9 59 34 40 57 -62 -99 -15 7 94 11 30 44
000030 07 dd fd c3 d8 4a f3 28 a7 16 d5 f1 c3 05 fd 27
       7 -35 -3 -61 -40 74 -13 40 -89 22 -43 -15 -61 5 -3 39
000040 cc ba 1e cb d7 3d d4 29 00 fd 28 44 fb f2 f3 b6
       -52 -70 30 -53 -41 61 -44 41 0 -3 40 68 -5 -14 -13 -74
000050 4f cf 09 f0 fa 45 41 49 05 c5 17 5d 64 00 f8 ee
       79 -49 9 -16 -6 69 65 73 5 -59 23 93 100 0 -8 -18
000060 48 17 f4 e9 2e 4b 2e 3f df ee e4 08 38 f1 16 13
       72 23 -12 -23 46 75 46 63 -33 -18 -28 8 56 -15 22 19
000070 2f 2a ed c2 bf 36 f4 02 cf aa d2 fa ac 13 f6 e8
       47 42 -19 -62 -65 54 -12 2 -49 -86 -46 -6 -84 19 -10 -24
000080 b5 68 12 b6 ce 0e df 58 e4 49 14 15 03 ed fa d4
       -75 104 18 -74 -50 14 -33 88 -28 73 20 21 3 -19 -6 -44
000090 40 a7 f6 ca fb 00 4d 5e e4 55 1d 30 45 e2 fc 01
       64 -89 -10 -54 -5 0 77 94 -28 85 29 48 69 -30 -4 1
0000a0 48 81 e9 f1 1e fc 21 32 ed 4b ed fa 2f d2 fa fb
       72 -127 -23 -15 30 -4 33 50 -19 75 -19 -6 47 -46 -6 -5
0000b0 4d a7 ed c7 92 df e6 db f8 1f d9 fa 91 f5 e5 c5
       77 -89 -19 -57 -110 -33 -26 -37 -8 31 -39 -6 -111 -11 -27 -59
0000c0 8c 17 0f b9 d2 c7 fe 68 d3 51 2e 49 1f bd 01 eb
       -116 23 15 -71 -46 -57 -2 104 -45 81 46 73 31 -67 1 -21
0000d0 31 17 f0 ef ff b8 5d 62 02 0f 1f 78 6a b0 f9 fe
       49 23 -16 -17 -1 -72 93 98 2 15 31 120 106 -80 -7 -2
0000e0 4f cc d3 ff 0a 96 1e 2c ed bc f4 0b 42 c8 f1 ea
       79 -52 -45 -1 10 -106 30 44 -19 -68 -12 11 66 -56 -15 -22
0000f0 6e 58 ec c4 99 ae dc d7 12 87 d8 06 a2 c2 e6 a2
       110 88 -20 -60 -103 -82 -36 -41 18 -121 -40 6 -94 -62 -26 -94
